Model: "sequential"
+--------------------------------------------------------------------------+
| Layer (type)                    | Output Shape           |       Param # |
|---------------------------------+------------------------+---------------|
| conv2d (Conv2D)                 | (None, 28, 28, 32)     |           320 |
|---------------------------------+------------------------+---------------|
| batch_normalization             | (None, 28, 28, 32)     |           128 |
| (BatchNormalization)            |                        |               |
|---------------------------------+------------------------+---------------|
| conv2d_1 (Conv2D)               | (None, 28, 28, 32)     |         9,248 |
|---------------------------------+------------------------+---------------|
| batch_normalization_1           | (None, 28, 28, 32)     |           128 |
| (BatchNormalization)            |                        |               |
|---------------------------------+------------------------+---------------|
| max_pooling2d (MaxPooling2D)    | (None, 14, 14, 32)     |             0 |
|---------------------------------+------------------------+---------------|
| dropout (Dropout)               | (None, 14, 14, 32)     |             0 |
|---------------------------------+------------------------+---------------|
| conv2d_2 (Conv2D)               | (None, 14, 14, 64)     |        18,496 |
|---------------------------------+------------------------+---------------|
| batch_normalization_2           | (None, 14, 14, 64)     |           256 |
| (BatchNormalization)            |                        |               |
|---------------------------------+------------------------+---------------|
| conv2d_3 (Conv2D)               | (None, 14, 14, 64)     |        36,928 |
|---------------------------------+------------------------+---------------|
| batch_normalization_3           | (None, 14, 14, 64)     |           256 |
| (BatchNormalization)            |                        |               |
|---------------------------------+------------------------+---------------|
| max_pooling2d_1 (MaxPooling2D)  | (None, 7, 7, 64)       |             0 |
|---------------------------------+------------------------+---------------|
| dropout_1 (Dropout)             | (None, 7, 7, 64)       |             0 |
|---------------------------------+------------------------+---------------|
| flatten (Flatten)               | (None, 3136)           |             0 |
|---------------------------------+------------------------+---------------|
| dense (Dense)                   | (None, 256)            |       803,072 |
|---------------------------------+------------------------+---------------|
| batch_normalization_4           | (None, 256)            |         1,024 |
| (BatchNormalization)            |                        |               |
|---------------------------------+------------------------+---------------|
| dropout_2 (Dropout)             | (None, 256)            |             0 |
|---------------------------------+------------------------+---------------|
| dense_1 (Dense)                 | (None, 10)             |         2,570 |
+--------------------------------------------------------------------------+
 Total params: 2,615,488 (9.98 MB)
 Trainable params: 871,530 (3.32 MB)
 Non-trainable params: 896 (3.50 KB)
 Optimizer params: 1,743,062 (6.65 MB)

